…
e the image to its original dimensions, by simply repeating the rows and columns of the layer input before feeding it to a convolutional layer.\nBatch normalization reduces covariance shift, that is the difference in the distribution of the activations between layers, and allows each layer of the model to learn more independently of other layers.\nModel: ""model_1""\n_________________________________________________________________\nLayer (type)                 Output Shape              Param #   \n=================================================================\nimage_input (InputLayer)     (None, 420, 540, 1)       0         \n_________________________________________________________________\nConv1 (Conv2D)               (None, 420, 540, 32)      320       \n_________________________________________________________________\npool1 (MaxPooling2D)         (None, 210, 270, 32)      0         \n_________________________________________________________________\nConv2 (Conv2D)               (None, 210, 270, 64)      18496     \n_________________________________________________________________\npool2 (MaxPooling2D)         (None, 105, 135, 64)      0         \n_________________________________________________________________\nConv3 (Conv2D)               (None, 105, 135, 64)      36928     \n_________________________________________________________________\nupsample1 (UpSampling2D)     (None, 210, 270, 64)      0         \n_________________________________________________________________\nConv4 (Conv2D)               (None, 210, 270, 32)      18464     \n_________________________________________________________________\nupsample2 (UpSampling2D)     (None, 420, 540, 32)      0         \n_________________________________________________________________\nConv5 (Conv2D)               (None, 420, 540, 1)       289       \n=================================================================\nTotal params: 74,497\nTrainable params: 74,497\nNon-trainable params: 0\n_________________________________________________________________\n\nRegression\nAlong with autoencoder, another machine learning technique we have used is Linear Regression. Instead of modelling the entire image at once, we tried predicting the clean
…
